assets/audio.tflite (tflite, 154348 bytes, 5 tensors)

sequential/dense/BiasAdd/ReadVariableOp f4 [2]
000000 46 be 4e be 46 be 4e 3e
       -0.20189771 0.20189771

sequential/dense/MatMul f4 [2, 128]
000000 0a cb ce 3d 68 10 40 3f 43 d9 83 3d 91 09 4c 3e
       0.100973204 0.75025034 0.06437924 0.19925524
000010 02 d5 4b bd 0b 69 e0 3e b4 55 0a 3f 54 e7 05 3f
       -0.049763687 0.4383014 0.5403702 0.52306104
000020 15 e6 a7 3e ca a6 80 3e 1d 22 2f 3e 83 98 97 bf
       0.32792726 0.2512725 0.17102857 -1.1843418
000030 7e 82 01 3e 6c a9 94 be 32 45 b0 bd 9c 6f b8 3e
       0.12647435 -0.2903551 -0.08606948 0.3602265
000040 2a e7 a5 3f 29 41 dc be 3c 48 a7 3e 30 63 1d be
       1.2961171 -0.43018463 0.32672298 -0.15369868
000050 54 13 e9 3d bc 72 8d 3f 66 98 23 3e d8 d6 66 3f
       0.1138064 1.1050639 0.15976104 0.90171576
000060 c2 ec d4 3e e2 31 a3 be ca ef cb be 17 e9 38 3f
       0.41586882 -0.31873995 -0.39831382 0.72230667
000070 c0 c5 28 3e f2 dc 0a 3f 87 f8 1f bd c4 19 67 bd
       0.16481686 0.54243386 -0.039055374 -0.056421056
000080 03 e0 aa 3e c5 e5 81 3d 65 e9 92 3e 80 a4 3f 3f
       0.33374032 0.06342653 0.2869369 0.7486038
000090 9a c5 33 be 27 69 20 3e 80 c6 32 bf 7d 2c cd bc
       -0.17555848 0.15665112 -0.69834137 -0.025045628
0000a0 09 7a 02 bc 3a 48 c3 be 0a f9 43 be 06 f9 70 be
       -0.007963666 -0.38141042 -0.1913797 -0.23532495
0000b0 3b fb b2 3e 0f 5b 34 bf 60 d3 64 3f 03 a5 f4 3d
       0.349573 -0.70451444 0.8938503 0.11945536
0000c0 5b 8b 84 3f 30 76 99 3e 68 3d 2f 3e 24 86 75 3e
       1.0355028 0.29972982 0.17113268 0.23976952
0000d0 37 c7 cb 3b dc 1b 3c bf ca 21 b8 be 85 c6 4c bc
       0.0062188166 -0.7348001 -0.3596328 -0.012498503
0000e0 bd 85 0b bf 6a cf 0b 3f 45 e0 f0 3e 3c a0 01 3f
       -0.54500943 0.54613364 0.47046104 0.50635123
0000f0 8b 21 f9 3d 10 db 39 bf 6c 0b 00 bf a4 32 0e bf
       0.12164601 -0.7259989 -0.5001743 -0.5554602
000100 a0 bc 6d bd 90 7d 6b bf 0a d3 1d bf eb 5e bb bc
       -0.058041215 -0.9198847 -0.61650145 -0.022872409
000110 2a ce 9a 3c 06 7c 80 bd c3 3c 32 3e 01 f6 da bd
       0.018897135 -0.062736556 0.17405991 -0.10691453
000120 3e ac 2e 3d da 22 da 3e c2 54 e1 3e ba 10 96 bc
       0.04264473 0.42604715 0.44009978 -0.018318523
000130 64 15 c7 3d 7a 19 d3 bd 46 26 f6 3e 8b fc d2 3e
       0.09720877 -0.10307594 0.48076075 0.412083
000140 71 09 2f bd 64 24 5d 3e ca 65 4d 3f bd d6 87 3e
       -0.042733613 0.21595913 0.8023344 0.2653102
000150 96 1e 75 bd 43 0d 55 3f 28 17 2e 3e 07 29 57 3d
       -0.059843622 0.8322336 0.17001021 0.05252936
000160 de f3 d3 3e 79 cd 70 3e fb 8e 0b 3f e3 45 91 be
       0.41396993 0.23515882 0.54515046 -0.28373632
000170 04 88 8c 3d 57 d1 0c be cc f9 f8 3e e7 d3 8e be
       0.068618804 -0.13751732 0.4862808 -0.27896044
000180 c1 12 38 3e f9 ae 80 be 4e 78 1f bf 69 16 8f 3d
       0.17975904 -0.25133494 -0.62292945 0.06986696
000190 76 07 b5 be fd 35 35 3f f0 14 fd 3e cd da 29 be
       -0.35357255 0.70785505 0.49430037 -0.16587372
0001a0 24 f5 79 3d a2 f8 ca be b9 1b e3 be eb da b7 be
       0.0610248 -0.39642817 -0.44357088 -0.3590921
0001b0 b5 06 70 3e 1b 2c 53 3e 42 76 40 be 7f 7c a4 3e
       0.23440059 0.20622294 -0.18795112 0.32126233
0001c0 88 df 73 be a2 26 4e 3e ae 64 cf be 5c 4e 5a bc
       -0.23815739 0.20131925 -0.405065 -0.013324346
0001d0 68 35 45 3d f0 64 3f bf 2b 3b a8 3c 48 f7 e7 bd
       0.048146635 -0.74763393 0.020536026 -0.11326462
0001e0 00 da d3 3e 2b 83 2f bd 1a a4 d9 3d fb ac 7a 3e
       0.41377258 -0.0428497 0.10627003 0.2448005
0001f0 73 28 8d be 87 1c 69 3e 84 e3 3a bc d7 87 97 3d
       -0.27569923 0.22764789 -0.011406783 0.07398956
000200 6a 42 aa bd 55 17 4e bf 24 39 90 bd c0 8c df bd
       -0.08313449 -0.8050435 -0.07042149 -0.10915518
000210 8c 06 76 3e 47 9b b2 be 3e f7 35 bf 36 94 1d be
       0.24025935 -0.34884092 -0.71080387 -0.15388569
000220 9b 64 d4 be 6b 80 57 bd 11 95 a1 bd a3 b1 88 3f
       -0.41483006 -0.052612703 -0.0788976 1.067921
000230 e6 81 9f be 48 c2 b1 3e a3 80 6e 3d 66 36 a3 be
       -0.31153792 0.34718537 0.058228146 -0.3187744
000240 50 35 a1 bf c1 93 e6 3e 22 5c 6f be 81 da 6c 3e
       -1.2594395 0.45034602 -0.2337499 0.23130228
000250 60 ce 18 be c3 c9 89 bf 41 30 27 3d bb ff 08 bf
       -0.14922476 -1.0764698 0.040817503 -0.53515214
000260 a0 10 f0 be 8e fe c4 3d 3d cc b9 3e c5 d9 e2 be
       -0.46887684 0.09618865 0.36288634 -0.4430677
000270 d2 08 2a be 21 ab ac be 2d c9 a2 be f5 2c 93 3e
       -0.16604927 -0.3372431 -0.3179411 0.28745237
000280 75 f5 88 be 9a 88 57 3e ac af 12 bc ec be 3c bf
       -0.2674977 0.21048203 -0.008953016 -0.73728824
000290 dc 5b ca 3d e7 30 83 be da 40 2a 3f 15 e2 89 3e
       0.09880802 -0.25623247 0.66505206 0.269303
0002a0 dc 96 0b 3b de 43 e4 3e 6d 0a ad 3c ff 52 c7 3e
       0.0021299636 0.4458303 0.021123135 0.38930508
0002b0 2c 20 f4 be e3 1a 76 3f 3b 8f 4d bf 3d e6 0f be
       -0.47680795 0.96134776 -0.8029668 -0.14052673
0002c0 de bb 6f bf 44 b5 2c be 54 4f 1b be 0c b9 6a be
       -0.9364604 -0.16866022 -0.1516698 -0.22922152
0002d0 4b 0d 3c 3e ce 96 25 3f d3 1c b2 3e e4 dd a5 3d
       0.18364446 0.64683235 0.34787616 0.08098963
0002e0 b9 f8 48 3f c8 25 14 bf dd 3e f5 be ef 93 11 bf
       0.7850452 -0.5787015 -0.47899523 -0.56866354
0002f0 95 46 7d bc 32 7c 50 3f f4 1a fd 3e 3e 15 f8 3e
       -0.015458723 0.81439507 0.49434626 0.48453707
000300 9f de 75 be 54 b0 69 3f a6 68 57 3f 79 ef 7e 3e
       -0.24010704 0.9128468 0.84144056 0.24896039
000310 1d 7c 89 3e f2 a5 46 3e 0b bb 92 be 9b 0e 44 3e
       0.26852503 0.1939924 -0.28658327 0.19146197
000320 f6 c4 26 be ef 52 98 be df f8 a3 be ce d2 60 3e
       -0.16286072 -0.29750773 -0.3202581 0.21955416
000330 91 39 0c bd 3c bd a5 3d da 88 13 be 7d b1 f7 be
       -0.034234587 0.08092734 -0.14407673 -0.483776
000340 49 73 39 be 34 40 aa be f7 f2 03 bf ba df c8 be
       -0.18110384 -0.33252108 -0.5154261 -0.3923319
000350 7b c5 1e 3e e5 fa 4d bf 0e 5d 2f be 79 e2 84 be
       0.1550502 -0.8046096 -0.17125341 -0.25954035
000360 7a 33 ef be e2 7e ee bd d4 e5 64 be a2 a6 3f 3a
       -0.4671896 -0.11645295 -0.22353297 0.0007310902
000370 3d 79 66 be 9a d3 c2 3e 88 80 df be b2 fa 17 3c
       -0.22507186 0.38052064 -0.4365275 0.009276079
000380 7e c3 fa bd cd 6e 93 3e 63 6e f9 3e ed cc 84 be
       -0.122443184 0.28795472 0.4871703 -0.25937596
000390 50 ee c2 3e 8a 24 57 bf 9e 5f f7 be a4 bb 2d 3e
       0.38072443 -0.8404013 -0.48315138 0.1696611
0003a0 e4 80 61 3e 5d cf e0 3e 3a 51 1e 3f af c6 8b 3e
       0.22021824 0.43908206 0.6184269 0.2730002
0003b0 53 6f 2c bd 93 90 eb bb 77 1d 4c 3d ce 4e e6 be
       -0.042098355 -0.0071888654 0.049832787 -0.44981998
0003c0 76 14 b1 3e 76 19 d1 3d 5b c8 b7 3e ae 1e 89 3e
       0.34585923 0.102099344 0.35895047 0.2678122
0003d0 15 13 23 be 1c 33 f3 3e e6 6f 2b 3e 27 ea 84 3e
       -0.15925248 0.4749993 0.16741905 0.25959894
0003e0 e6 34 e7 be d2 5f cc 3d 79 a8 31 be 64 c3 27 be
       -0.45157546 0.09979214 -0.17349423 -0.1638313
0003f0 72 c8 40 bc 77 4d 9a be 3b bf 70 3d dc df 1d 3b
       -0.01176654 -0.30137226 0.05877612 0.002408973

sequential/simple_rnn/while/simple_rnn_cell/BiasAdd/ReadVariableOp f4 [128]
000000 6f 52 b0 3d 81 2b 18 3d a0 d3 96 bc f7 80 40 3e
       0.08609473 0.037150864 -0.018411458 0.18799196
000010 5d 54 a9 bd bc 88 ea bd 7b 81 fc 3d 17 00 19 bc
       -0.08268044 -0.11451861 0.12329384 -0.0093384
000020 af 15 33 3e 0d 81 55 3e c7 de ec 3d 7f 7d 37 bf
       0.1748874 0.2085001 0.11565929 -0.71675867
000030 63 c6 a4 be 31 56 a4 3d a7 a3 99 bb 8a 7f a4 3c
       -0.32182607 0.08024252 -0.0046886983 0.020080347
000040 33 27 0b bd 0b 74 8c 3d 3a 54 01 3d 8a 4e 56 bd
       -0.03397293 0.06858071 0.031574465 -0.052320994
000050 f4 73 71 bd 4c b8 60 3e 97 97 24 3e df 5e b5 3d
       -0.058948472 0.21945304 0.16073452 0.08855986
000060 6f fc 8c bd 37 f4 d7 bd 69 1e c7 bd ab cd e6 3e
       -0.068840854 -0.10544627 -0.09722597 0.45078787
000070 0e 54 62 3e 06 50 da 3b 37 57 f5 bc 9b be c3 3e
       0.22102377 0.0066623716 -0.029948814 0.38231358
000080 3e 84 74 bd 3e 2a f9 bd 1b 28 45 3d f7 96 e1 3d
       -0.05969643 -0.1216626 0.04813395 0.110151224
000090 fc c4 1f bd 92 05 3c 3e dc dd 7c be d0 27 09 bd
       -0.03900622 0.183615 -0.24694008 -0.033485234
0000a0 58 3b f4 39 b1 28 53 bd ad f9 15 3d bd 82 22 3d
       0.0004658352 -0.05155248 0.036615063 0.039675463
0000b0 14 a2 c0 3e e8 0d 81 3e 03 fa fe 3d 5e 8b 21 3d
       0.37623656 0.25205922 0.1245003 0.03943955
0000c0 7e a1 b9 3e a3 6a ca be 95 10 d9 3d dd 9f d9 bd
       0.3625602 -0.39534482 0.10598866 -0.106261946
0000d0 56 91 c8 3c b0 a9 02 bd b1 ae ca 3e 4b f0 ae 3b
       0.024483364 -0.031900108 0.39586404 0.0053387037
0000e0 28 0a c9 be 0e a6 bc bd 2a c8 7e 3c 0d ec 83 bd
       -0.3926556 -0.0921136 0.0155506525 -0.064415075
0000f0 0e d7 ba 3b bf d3 65 be f2 9b db 3d da ab b4 bd
       0.005701906 -0.22444056 0.107231036 -0.088218406
000100 9f b0 ef 3d 85 0b 20 3f 03 0d b9 3e 8f 9a c3 bd
       0.1170361 0.6251758 0.3614274 -0.09550964
000110 44 66 ae bd 13 42 a3 bd fe 47 ac 3b ad 6a 11 bd
       -0.08515599 -0.07971587 0.0052576056 -0.035502125
000120 f2 f2 de 3c 05 3a 0b bc cf ac 84 bd 61 b7 40 be
       0.027215455 -0.00849772 -0.06478273 -0.18819954
000130 b8 e2 dd 3d fd db b2 bd 20 22 64 ba 33 7f 02 3d
       0.10834259 -0.08733366 -0.0008702595 0.031859588
000140 2e 9b 3d 3e 1e b3 50 bc fe bc 80 be 02 7d 39 bb
       0.18516228 -0.012738017 -0.2514419 -0.002830327
000150 62 16 79 be 39 20 fb bb 04 92 17 3e 5e 32 96 3d
       -0.24324945 -0.0076637533 0.14801794 0.073338255
000160 11 28 07 3e bf d3 3f bd 56 29 b2 3d 59 43 ab 3d
       0.13198878 -0.046832796 0.086992905 0.08362455
000170 92 53 03 3e 82 b4 31 3c ae a4 01 be 4b 23 a8 bd
       0.12824848 0.010846259 -0.12660477 -0.082098566
000180 04 9a 82 3d ee b5 86 3d 6b 48 b7 bd ac d7 83 3d
       0.063770324 0.06577669 -0.089493595 0.064376205
000190 ff fa 25 be a2 c3 f6 3d ff 85 e5 bc ad f0 44 3e
       -0.16209029 0.12049033 -0.028017996 0.19232436
0001a0 cd 55 ff bd 76 e3 85 bc ea 3e 03 3d 0e 48 8e 3d
       -0.12467537 -0.016343813 0.03204242 0.06947337
0001b0 16 af e8 3d b1 0b 1a be 42 4b 0c bd 04 0b 1f 3e
       0.1136152 -0.15043522 -0.03425146 0.15531546
0001c0 35 c7 a1 bd d9 7e 1b 3e 10 38 ab 3d b7 c2 b5 bd
       -0.07899324 0.15185107 0.083603024 -0.088750295
0001d0 90 ca 8d 3c 6d 5c 70 be 0d 4a a1 3b 1e 96 2f bc
       0.017308503 -0.23472758 0.0049221576 -0.010716943
0001e0 ce 39 fd bc 5e d6 0a bc 17 4a 25 3e 59 f9 a3 3d
       -0.030911352 -0.008473961 0.16141544 0.08006544
0001f0 03 2a ec bd 8f a6 a1 3e d9 a5 1c 3d 82 b0 35 3e
       -0.115314506 0.31572387 0.038244102 0.17743114

sequential/simple_rnn/while/simple_rnn_cell/MatMul_11 f4 [128, 128]
000000 00 e6 5d bc 9f 2b b1 bc 3b ba 76 bc 55 b8 fd bd
       -0.013543606 -0.021627245 -0.015059049 -0.12388674
000010 51 9e 33 3e 9b fd 92 3d 5e 14 aa 3c 70 6a 8b bd
       0.17540862 0.07177278 0.020761665 -0.06807411
000020 0d 5f 3f bd bd eb 9c 3d ec 83 a2 bc a4 e2 88 3d
       -0.046721507 0.07662151 -0.019838296 0.06683853
000030 84 a1 92 3d 33 09 a3 bd 46 3f 80 bd f9 e2 5b 3e
       0.07159713 -0.07960739 -0.062620685 0.21473302
000040 d3 d2 1e 3d 2e 3c e7 bd 12 15 0b bd 76 12 91 bd
       0.038775276 -0.11290775 -0.03395564 -0.07083599
000050 c8 00 76 bd 4d 08 cf bd ff 63 06 3e 56 9b e4 bc
       -0.06005934 -0.10109005 0.13124083 -0.027906101
000060 dc 88 75 3d 7e 63 7f 3c c6 88 ba 3d 48 a5 1e bd
       0.059944972 0.015587686 0.09108119 -0.038731843
000070 10 60 75 bd 91 67 e9 3b 74 e0 ea bd cf ef 00 3d
       -0.059906065 0.007122942 -0.11468592 0.0314787
000080 21 4a 4a bd 95 61 bf bd 3d 44 27 3d 5e c7 a8 3d
       -0.0493871 -0.09344784 0.04083656 0.08241151
000090 67 3e 3e be 59 ec 01 bd 12 98 0e 3d 53 04 44 3b
       -0.18578492 -0.03171954 0.034812994 0.0029909804
0000a0 c4 d1 4d bd 8b c4 a6 bd db c3 f9 bc ee 5d 67 bd
       -0.050248876 -0.08142956 -0.030488899 -0.056486063
0000b0 27 51 81 3d 51 68 64 bc 6e 05 9a bc 59 17 d9 3a
       0.06314307 -0.013940887 -0.018801417 0.0016562744
0000c0 91 ab b4 bc 63 ad 18 bd 3f 02 52 bd 76 48 80 bc
       -0.022054465 -0.03727473 -0.051271673 -0.015659552
0000d0 48 45 26 be be c5 70 3d d0 80 bc 3c cf a1 c2 3b
       -0.16237366 0.05878233 0.023010641 0.0059396992
0000e0 70 c6 51 bd cc 7d 38 3d 06 64 a2 3d 3c 1c ad bc
       -0.051214635 0.045041844 0.07929234 -0.021131627
0000f0 b9 b1 f2 bd c3 41 8d bd b9 2c 27 be f3 ee 67 3e
       -0.11850304 -0.06897309 -0.16325654 0.22649746
000100 e1 26 5c 3d cd 9d 83 3d 26 06 c9 bc 52 5b bd bc
       0.053748015 0.064265825 -0.024539065 -0.023114834
000110 57 6a 4f 3d ab e3 bc bc 02 ae e8 bd f7 f1 5c bc
       0.050638523 -0.02305778 -0.11361314 -0.013485423
000120 d8 71 44 bd 29 38 18 3e c3 65 e9 3d ba d8 1e 3c
       -0.047960132 0.14865173 0.11396363 0.009695226
000130 2d b1 b1 bd 6a b5 da 3c a6 d7 a8 bd 9d 5d 0a 3d
       -0.08676372 0.026697833 -0.08244257 0.033780683
000140 ad 6b ca 3d 98 4a 89 3d 67 eb 2a bb 69 d6 f0 3c
       0.09883819 0.06703681 -0.0026080252 0.029399114
000150 3c c1 8e bd 6a 2f bf bd c9 3f d5 3c 9d 19 79 3d
       -0.0697045 -0.093352154 0.026031392 0.060815442
000160 cd fa c9 bd 32 10 84 bd b6 c4 df ba a7 db 81 3c
       -0.098622896 -0.064484015 -0.0017072174 0.015851809
000170 2e 7e 19 bd 8c 4b 95 bb 90 cd 24 bd 57 9d 48 bb
       -0.03747385 -0.004556125 -0.040235102 -0.003061136
000180 8d 1a f4 3d e3 e1 ba bd 46 1f 14 bc 8d 44 85 be
       0.11919127 -0.09125116 -0.009040659 -0.26028863
000190 a8 a6 40 3e 35 29 00 bd 71 b0 89 3e 4d fb 56 bd
       0.18813574 -0.031289298 0.26892427 -0.052485753
0001a0 f8 30 f3 bb 09 6a 1f bd ce 3b 20 3c 15 f4 ab 3b
       -0.007421609 -0.038919482 0.009779884 0.0052476027
0001b0 36 c2 d5 bd 32 c1 d8 bd 81 2b ee bd 65 63 18 3d
       -0.104374334 -0.10583724 -0.116293915 0.037204165
0001c0 00 0b dc bc 00 3b 43 bc c5 17 07 bd b9 21 77 be
       -0.026860714 -0.011915922 -0.032981653 -0.24133958
0001d0 7e 28 08 bd 51 e1 2b be ac 14 df bd cc 5a d4 bb
       -0.03324174 -0.1678517 -0.10892615 -0.0064805504
0001e0 ed 77 ce bd ea c3 e5 bd f8 b5 e6 bc 70 ec c5 bd
       -0.10081468 -0.11219008 -0.028162941 -0.096642375
0001f0 ae 6b 1e 3e 20 d2 d9 3c d5 5f 43 be 5c 0e 66 bd
       0.15470764 0.026589453 -0.19079526 -0.056166038
000200 84 51 92 3d 50 f8 0b 3e da d9 35 3d 91 c2 ad bc
       0.07144454 0.13668942 0.044397213 -0.02121094
000210 16 f5 2b bd 57 fb 3b 3c 7c 89 d1 bc 71 7b 50 3d
       -0.04198178 0.011473498 -0.025578253 0.050898973
000220 55 d7 56 bc 29 6d 7e bd 7f fc df bd ea 70 bd 3c
       -0.013112863 -0.062115822 -0.10936832 0.02312513
000230 94 bf b4 bd f9 a7 1e 3e c6 57 12 bc 5d 6f 86 bd
       -0.08825603 0.15493764 -0.00893206 -0.065642096
000240 73 17 3c 3d db 37 63 bc fc da 9b 3d e5 3a 04 be
       0.0459208 -0.013868297 0.07610127 -0.12913091
000250 6a fd d1 3d 8c 41 f6 bd 8b a2 05 bd 0c 04 c8 3d
       0.10253413 -0.12024221 -0.032625716 0.09766397
000260 38 36 69 bd b2 08 cb 3d bb 69 a3 3d 46 f1 57 3e
       -0.056936473 0.09913768 0.07979151 0.21088132
000270 13 29 3e bd b7 e2 8b 3c be 34 8a be 84 f1 8a 3e
       -0.04642589 0.01707588 -0.26993364 0.27137387
000280 d6 87 96 bb 90 50 13 3d df 0f b4 3d 9c 40 d3 3c
       -0.0045938296 0.035965502 0.0879209 0.025787644
000290 56 e1 ef 3c 77 77 f0 bd e0 63 a7 bd 9d c6 8e bd
       0.029282253 -0.11741536 -0.081733465 -0.06971476
0002a0 50 40 07 3e b0 ce 89 3c 7b 0c be bd 57 1e 21 3e
       0.13208127 0.01682219 -0.09279724 0.1573423
0002b0 8e ff 64 3c 86 e5 01 be ce d5 65 bd e4 26 9b bd
       0.013976945 -0.12685212 -0.056112103 -0.07575777
0002c0 64 08 24 3d e8 94 88 3c 89 7d 49 3d 7e 38 a6 bd
       0.040047064 0.016672567 0.049191985 -0.08116244
0002d0 0b a6 27 3e bd 45 73 bd f3 87 d0 3c e1 10 98 bb
       0.16371934 -0.05939268 0.02545545 -0.004640684
0002e0 95 94 b7 3d 2c 03 eb bc b5 5b f7 bd 10 f2 c2 3d
       0.08963887 -0.028688036 -0.120780386 0.09518826
0002f0 ee fc b3 bd 2a 16 98 3d 1e 8c 77 bd 11 9d d3 3d
       -0.08788477 0.074261025 -0.06043636 0.103326924
000300 c1 e7 2c 3d 12 7c 41 3d 9d 82 94 bd 52 46 e5 bc
       0.042213205 0.047237463 -0.07251475 -0.027987633
000310 90 92 97 bd a2 9f 3c bd 2a 78 03 3d 84 f2 a7 bd
       -0.074010015 -0.046050675 0.03209702 -0.08200553
000320 6a df 20 3d d1 a6 c9 3c 99 6d 27 be b9 ec 35 3d
       0.039275564 0.024615677 -0.16350402 0.04441521
000330 d6 2e e3 bd 54 01 79 bc 64 10 b7 bd 6f 43 ab bc
       -0.110929176 -0.015198071 -0.08938673 -0.020906178
000340 0a 7b ac 3c 78 e2 b6 3d 3d 80 0f 3e ba 84 2e be
       0.021054763 0.08929914 0.14013763 -0.17042819
000350 6b 50 43 bd 10 1f cc 3c 73 70 ea bd 31 b1 c0 bb
       -0.047684114 0.024917156 -0.11447229 -0.005880498
000360 7a 5a 61 3b 26 25 b3 bd 43 a0 fa bd f8 0c 0a be
       0.0034386204 -0.0874732 -0.12237599 -0.1348151
000370 85 d4 de bd f5 f0 56 3d 4e 61 0a 3e e6 99 ab 3d
       -0.10880379 0.05247589 0.13513681 0.08378963
000380 92 f9 b3 bb 45 b3 1f be 06 25 2e be 74 0d 98 3d
       -0.0054923976 -0.1559573 -0.17006311 0.07424441
000390 72 22 12 3d 70 52 83 bc 33 f4 eb 3c bf 64 34 3c
       0.03567738 -0.01603052 0.028802967 0.011010348
0003a0 d8 b9 c6 bc 9f c8 fd bd 8c 70 c5 bd 84 46 0c bc
       -0.02425854 -0.12391781 -0.09640607 -0.008561734
0003b0 78 77 ba bd 6b 9b 34 bc d3 65 2e bd 0b e7 ce 3d
       -0.09104818 -0.011023383 -0.042577576 0.10102662
0003c0 64 01 ce 39 fc 9b cd 3d 57 e0 2d bb 90 33 45 3d
       0.00039292418 0.10039517 -0.0026531422 0.048144877
0003d0 de a9 57 bc b4 84 20 bd 65 1b 99 3d 8f 25 5a bd
       -0.013163058 -0.039189056 0.07475928 -0.053258475
0003e0 45 bf b5 bc 34 3a 54 3d 66 94 b3 3d 1e 03 a1 bc
       -0.022185931 0.05181332 0.08768539 -0.019654807
0003f0 99 f1 f3 3d 42 67 8b 3d da 11 11 3e bc df 08 be
       0.119113155 0.06806804 0.14166966 -0.13366598

sequential/simple_rnn/while/simple_rnn_cell/MatMul f4 [128, 153]
000000 91 dd b9 be 67 ae 12 bf 96 99 86 bf 74 d0 03 3f
       -0.36301854 -0.57297367 -1.0515621 0.5148995
000010 5f dc e5 bd 3e 49 3d bf a9 cf 8b 3e ca cd 12 3f
       -0.11223673 -0.73939884 0.2730687 0.5734526
000020 51 10 d8 3e 11 d3 18 3f 93 c6 4f be 7e 9c a4 3d
       0.42199948 0.5969706 -0.20290594 0.08037661
000030 3b 79 e8 3e d0 f2 9a 3c ba 07 a5 be 1f 52 36 bf
       0.45404992 0.01891461 -0.32232457 -0.71219057
000040 8f 4a 06 bf 7b 01 f8 be e2 1a 96 be 58 a5 aa be
       -0.5245752 -0.4843863 -0.29317385 -0.33329272
000050 76 56 2d bc ab 2b 37 be 1b b5 0f 3e 43 78 cb 3d
       -0.010579696 -0.17887752 0.1403393 0.099350475
000060 25 b4 97 3d dd f9 89 3e 67 af 9c bc 15 50 e3 bd
       0.07407407 0.26948443 -0.019126607 -0.11099259
000070 25 3a 28 3e 8f df 69 3e dd d0 1a 3e b9 45 7e 3d
       0.1642843 0.22839187 0.15118738 0.06207821
000080 70 65 42 3f 45 6a 47 3f 52 5b d6 3c 9c 4c 20 3d
       0.7593603 0.7789653 0.026166592 0.03913556
000090 20 c7 96 3d 0c 37 c6 be d8 f3 8a be 6b 25 0e 3e
       0.07362199 -0.38713872 -0.27139163 0.13881461
0000a0 b8 5a 55 3c 93 9d aa bd 2c 35 3b 3e c3 3d d5 bd
       0.013022117 -0.08330836 0.18282002 -0.10412171
0000b0 ca 34 9a be b4 77 cb be fa 31 fa be 78 7b 04 3e
       -0.301184 -0.39739764 -0.48866254 0.12937725
0000c0 36 39 80 3f c8 ba 18 3f 00 8a 00 bf a6 3d 10 bf
       1.0017459 0.59660006 -0.5021057 -0.5634407
0000d0 86 93 39 bf 7b 35 1a 3e 59 d4 b4 3e b2 03 8b bd
       -0.7249073 0.15059464 0.35318258 -0.06787814
0000e0 3a 8d 19 be 83 7e 8c 3d 1c 2b 05 be 48 2e 6e be
       -0.1499528 0.06860068 -0.13004726 -0.23259842
0000f0 92 65 02 be 04 df 24 be dc 7b 01 bd 19 9e 2d be
       -0.12734058 -0.16100699 -0.031612262 -0.1695484
000100 9a b4 0d be ef fc 5f be d2 67 b4 bd e6 a3 ea bc
       -0.13838425 -0.2187383 -0.08808865 -0.028642606
000110 88 ef 59 bd 89 68 98 be fb 0a 3f bc d2 bb b1 be
       -0.05320695 -0.29767254 -0.011660333 -0.34713608
000120 9b 6d 91 bd de 76 af be 65 4b 24 3d 8c fa 93 3e
       -0.07100984 -0.34270376 0.040110964 0.2890209
000130 c3 d1 54 bf ad 0d 22 bf ea 74 8c bf 7f cc b9 be
       -0.8313257 -0.6330212 -1.0973179 -0.3628883
000140 81 cd da be 0f bb e6 be 5e 11 43 bf 70 5e c0 be
       -0.42734912 -0.4506459 -0.76198375 -0.3757205
000150 96 86 96 be 46 5e 33 3e 60 a5 c1 3c f3 e9 aa bd
       -0.29399556 0.17516431 0.023638427 -0.083454035
000160 2b 76 5d be 0d 1c 15 be 17 f9 52 3b 8e 56 d2 bd
       -0.21627109 -0.14561482 0.0032191926 -0.10270415
000170 10 dd 2a be b2 14 d1 3e 76 12 c7 3e 7c 77 6f 3f
       -0.16685891 0.40836102 0.38881272 0.93541694
000180 18 03 23 3e 4e 40 b3 3b cc 76 1d be 1a c3 2f be
       0.15919149 0.005470312 -0.15377349 -0.17164269
000190 b5 7a c5 3e 56 28 94 3e 45 38 b2 3e dc a6 e7 3d
       0.3857018 0.28937024 0.34808555 0.11311123
0001a0 3e 42 c4 bc fb ac 33 be 78 91 e4 bd 73 a4 26 be
       -0.023957368 -0.17546456 -0.111605585 -0.1627367
0001b0 62 da d9 bd da e3 3d be 07 b9 d7 bb a2 28 06 be
       -0.10637356 -0.1854395 -0.0065833363 -0.13101438
0001c0 dc 4f 19 be 87 ba a8 39 b4 ed d6 bd 6c 3b dc bb
       -0.1497187 0.0003218243 -0.10494557 -0.006720951
0001d0 c7 ff e3 bd 3d 1c 57 be 8c 46 76 be ea f5 59 be
       -0.1113277 -0.21006866 -0.24050349 -0.21285215
0001e0 7f 5b bd bd 25 32 c7 bd c7 89 43 be 31 1a dd bd
       -0.09245967 -0.09726361 -0.19095527 -0.10796011
0001f0 84 82 c3 bd 6a 76 92 be ca 1c 39 be 1a 1f 55 bd
       -0.09546378 -0.28605968 -0.18077388 -0.052031614
000200 a0 13 c7 bd be c3 65 be 23 b3 8c be 04 ab a0 bc
       -0.0972054 -0.22437951 -0.2748042 -0.019612797
000210 2e 44 85 be 5a b9 92 be 23 19 75 be 46 c7 b5 bd
       -0.2602858 -0.28657037 -0.2393537 -0.08875899
000220 d2 83 3b be ea d8 49 be 06 ad 4c be 2e d9 13 be
       -0.18312004 -0.19711652 -0.19987878 -0.14438316
000230 c3 15 62 be 0a ad 8a be 0d ce a7 bc 27 76 2e bc
       -0.22078614 -0.27085143 -0.020483995 -0.010648287
000240 f6 b1 41 bd 99 6e 3f be bd 65 75 be 16 9a f5 bd
       -0.047288857 -0.18694533 -0.23964591 -0.1199228
000250 d6 0b aa bd ed 6d 22 be 4b e5 77 bd 43 db dc bd
       -0.08303039 -0.15862246 -0.060521405 -0.10784008
000260 57 7e 1a be 9e 00 a8 be e8 5d 77 bf df 32 af 3e
       -0.15087257 -0.3281297 -0.96627665 0.342185
000270 df 38 a3 3c 32 5e a8 bf c1 e9 95 3f f3 ef ba 3f
       0.01992458 -1.3153746 1.1711961 1.4604477
000280 ed 5a d2 3d a0 52 26 bf 93 ec 89 bf 3b f8 c3 3e
       0.10271249 -0.64969826 -1.0775322 0.38275322
000290 c9 3c e2 3e fe 70 c3 bf 77 78 31 3e c7 a8 35 be
       0.44187 -1.5268857 0.1733111 -0.17740165
0002a0 2d 6c 43 3f ad 45 ac 3e ec a0 ed 3c de 0e 64 be
       0.7633694 0.33646908 0.029007398 -0.22271296
0002b0 c6 43 10 bf 78 f0 52 bf 6e b6 05 bf 5f 56 e7 3d
       -0.56353414 -0.82398176 -0.5223149 0.11295771
0002c0 1c 6f 27 3e 63 24 43 3e 75 0e 1c bf d6 0a 78 be
       0.16350979 0.19056849 -0.6095956 -0.24222884
0002d0 80 48 d6 be 76 4b b3 bf db 08 49 3e de 8c bd 3e
       -0.41852188 -1.4007404 0.19632284 0.37021536
0002e0 b0 e7 aa 3e f7 22 83 3d 2b 78 ef 3e dc a9 1e 3e
       0.3337989 0.064031534 0.46771368 0.15494484
0002f0 b7 9a d7 bd 49 d6 87 be cf b2 a8 be f2 09 8e bf
       -0.105275564 -0.26530674 -0.3294892 -1.1096785
000300 11 ca 0b bf d3 a2 a4 3d 36 39 4d 3d 07 eb 9f 3e
       -0.54605204 0.08038869 0.05010339 0.31234
000310 b4 a3 a1 3e c7 c5 14 3e 50 66 5d bf 61 04 63 bf
       0.31570208 0.14528571 -0.8648424 -0.88678557
000320 f6 79 c8 3d c4 01 3b be c6 6a 93 bf a6 4b 6c 3c
       0.09788887 -0.18262392 -1.151696 0.014422333
000330 42 1c 95 3e bc 6e 91 3e 09 d4 8b be 10 e8 6f 3e
       0.29123122 0.28404796 -0.27310207 0.23428369
000340 9a a6 89 3e ea 75 06 bc a6 1f 6a be 23 d0 5a 3e
       0.2688492 -0.008206824 -0.22863635 0.2136846
000350 1c cd c3 bd 3e 1e 41 3f 09 5f 3c 3f aa 53 31 3e
       -0.09560606 0.7543677 0.7358251 0.17317072
000360 c6 35 95 3e e1 a2 cb 3e 72 d8 6a 3d 0f 8e 91 ba
       0.29142588 0.39772704 0.057335325 -0.0011104959
000370 29 24 a5 3e 2b c3 4f 3e c0 7b 35 3e e1 60 40 3e
       0.3225415 0.20289294 0.17722988 0.18786956
000380 07 f5 d2 3e d5 5d cf 3e be 60 4a 3f 7b d4 51 3f
       0.41202566 0.40501276 0.79053867 0.81964844
000390 95 3d 30 3f 61 43 d8 3d 10 a4 7f be 6a 89 32 3d
       0.68843967 0.105597265 -0.24964929 0.04358808
0003a0 37 6a 08 be 5f 25 cf bd 14 b5 30 3e cf 93 7d 3c
       -0.13321768 -0.1011455 0.17256576 0.015477135
0003b0 d3 c3 8c bd b5 de ae bd 8e 75 fd 3d 64 a7 0c 3e
       -0.06873288 -0.08538572 0.123759374 0.1373573
0003c0 fe 58 67 bd 5c fe 4f 3e d8 64 23 be 3e 30 55 3d
       -0.056481354 0.20311874 -0.15956438 0.05204796
0003d0 6c c3 5b be e8 37 1a be 22 d1 cf 3d aa 37 0a bf
       -0.21461266 -0.15060389 0.10147311 -0.53991187
0003e0 a3 d1 e6 be 80 77 55 bd f5 e2 3e 3e 85 24 5c 3d
       -0.45081815 -0.052115917 0.18641265 0.053745765
0003f0 d4 23 57 bd 81 e4 b4 3d 76 26 f4 bd 29 8e 03 bf
       -0.052524403 0.08832646 -0.11921398 -0.51388794
